saved/saved_model.pkl (torch, 5744 bytes, 5 tensors)

fc1.weight f4 [32, 6]
0	0xbe63a56c	-0.22231072
1	0xbc79d0b6	-0.0152475145
2	0xbe521c32	-0.20518568
3	0x3e87a8ca	0.26495963
4	0xbe77c8ef	-0.24197744
5	0xbe18e177	-0.14929758
6	0x3da193d2	0.078895226
7	0xbe8d41ef	-0.27589366
8	0x3f3cbfb4	0.73730016
9	0xbead432d	-0.33840314
10	0xbea528bc	-0.3225764
11	0x3ddcc547	0.10779815
12	0x3ea195d5	0.31559625
13	0x3ecb9007	0.39758322
14	0x3ecdaa79	0.40169123
15	0x3ef697a3	0.48162565
16	0x3ea0e6f2	0.31426197
17	0xbeb7ca44	-0.35896504
18	0x3ed4e4aa	0.41580707
19	0xbde9bed9	-0.114133544
20	0x3e2b05ea	0.16701475
21	0xbf9d87fe	-1.2307127
22	0x3d75fc5b	0.060055118
23	0xbecdf97f	-0.40229413
24	0x3be34a68	0.00693636
25	0xbeb29acc	-0.34883726
26	0xbd94389d	-0.072373606
27	0x3d5ac564	0.053410903
28	0xbe7058ac	-0.23471326
29	0xbe893cf1	-0.26804307
30	0x3e8bd4e6	0.27310866
31	0xbd948357	-0.072516136
32	0xbf4db3b0	-0.80352306
33	0x3e4fc7cb	0.20291059
34	0xbd580490	-0.052738726
35	0xbb79af46	-0.0038098856
36	0xbd5623a4	-0.052280083
37	0xbf87a524	-1.0597272
38	0xbd9e1529	-0.0771888
39	0x3e41486b	0.18875282
40	0xbdf3b03e	-0.1189885
41	0x3ed95bfd	0.42452994
42	0x3d12e3c5	0.03586175
43	0xbe3a9317	-0.18220173
44	0x3f00e1b0	0.5034437
45	0x3ef5e816	0.4802863
46	0x3f122fe3	0.5710432
47	0x3e0e288a	0.13882652
48	0x3e3e2398	0.18568265
49	0x3ea16e4c	0.31529462
50	0xbf2f113c	-0.6838567
51	0x3e78f551	0.24312331
52	0xbec3230e	-0.38112682
53	0xbe25f025	-0.16204889
54	0x3e359be0	0.17735243
55	0xbef42589	-0.47684887
56	0x3eff6dc4	0.49888432
57	0x3f16ac84	0.5885699
58	0xbf12d58d	-0.573571
59	0xbd6c0aa7	-0.057627346
60	0x3ae591f4	0.0017514811
61	0x3e8e91a0	0.27845478
62	0xbe49b0b6	-0.19696316
63	0xbecee661	-0.4041014
64	0x3cbfe256	0.023423355
65	0xbe8d9486	-0.27652377
66	0x3d0f030c	0.034915015
67	0x3f00464d	0.5010727
68	0xbebbd7a1	-0.3668795
69	0xbf3b6c3d	-0.73212034
70	0x3ea33504	0.31876385
71	0x3d6515ec	0.05592911
72	0x3eaf0d38	0.34189773
73	0xbecdee1b	-0.40220723
74	0x3f0c2145	0.54738265
75	0xbf233e99	-0.6376739
76	0xbdd67e81	-0.104733475
77	0xbea29846	-0.317568
78	0x3d765ff0	0.060150087
79	0x3eab64fa	0.33475477
80	0x3edc7f18	0.43065715
81	0x3ef8d581	0.4860039
82	0xbdf60384	-0.12012389
83	0x3eb37856	0.35052747
84	0xbe103a10	-0.14084649
85	0xbf8ba519	-1.0909759
86	0x3ea376a1	0.31926444
87	0xbdf5567f	-0.119793884
88	0xbd002da3	-0.031293523
89	0x3ebf36ae	0.37346405
90	0xbf07d3bf	-0.53057474
91	0x3e2234fb	0.15840523
92	0x3f03e0f8	0.5151515
93	0xbf25fb28	-0.6483636
94	0x3e0f81d3	0.14014368
95	0x3e0d45a8	0.13796103
96	0x3edbcc62	0.4292937
97	0xbf0196ff	-0.50621027
98	0xbeacfa7d	-0.33784857
99	0x3e24b88d	0.16086026
100	0x3e7d9ae3	0.24766116
101	0xbdea9a84	-0.11455253
102	0xbe40d768	-0.18832171
103	0xbec6c8be	-0.3882503
104	0xbec138d7	-0.37738678
105	0x3edf57f5	0.43621793
106	0x3ea0e3dc	0.31423843
107	0x3ecfbcf5	0.4057385
108	0x3e8a911f	0.27063844
109	0xbf0eb286	-0.55741155
110	0xbd8ecd41	-0.06972743
111	0x3d0fc3cc	0.035098836
112	0x3e9fd058	0.3121364
113	0x3f0efb71	0.5585242
114	0x3e1c0f0a	0.15240112
115	0xbdf717e5	-0.120651044
116	0x3d7e790f	0.06212717
117	0xbed18177	-0.40919086
118	0x3ea03df1	0.31297258
119	0x3ecca737	0.39971325
120	0x3e68af7a	0.22723189
121	0xbe5e5729	-0.21712936
122	0x3ee78412	0.4521795
123	0x3d8df98e	0.069323644
124	0x3edc431a	0.43019944
125	0xbdd3b176	-0.10336582
126	0x3eb418da	0.3517521
127	0xbe1951be	-0.14972588
128	0x3e54621c	0.20740551
129	0x3ea51c3a	0.32248098
130	0x3e474a8f	0.19462036
131	0x3d4c93d9	0.049945686
132	0x3ec16ebd	0.377798
133	0xbb44647b	-0.0029967118
134	0x3ee8c6a4	0.4546405
135	0x3e930d36	0.28721017
136	0xbde5fa7f	-0.11229419
137	0x3ed39a65	0.4132873
138	0x3c044002	0.008071901
139	0x3ea0729a	0.31337434
140	0xbf8f83c7	-1.121209
141	0x3ca84997	0.020542903
142	0x3e47c91e	0.19510314
143	0xbd20ff88	-0.039306194
144	0x3d92239d	0.07135699
145	0x3e4543d2	0.19264153
146	0x3d8cb547	0.068705134
147	0x3d40cb3c	0.04706882
148	0xbed46200	-0.41481018
149	0x3de9209d	0.113831736
150	0xbc9a3fa6	-0.018829178
151	0x3d70b237	0.05876371
152	0xbf51a7e3	-0.818968
153	0x3e6ea9c1	0.23306943
154	0xbe53f500	-0.20698929
155	0xbd24c2ca	-0.040224828
156	0xbf110a9c	-0.56656814
157	0xbe3f021e	-0.18653151
158	0x3d119b47	0.035548475
159	0xbd00e307	-0.03146651
160	0xbe8f9a6a	-0.28047496
161	0x3ec7341d	0.38906947
162	0xbefada98	-0.489949
163	0x3e828115	0.25489107
164	0xbf145911	-0.57948405
165	0xbddaf137	-0.10690539
166	0x3e7467ad	0.23867674
167	0x3ec666a7	0.38750193
168	0x3dc846a7	0.09779101
169	0x3cf8a76a	0.030353267
170	0x3ecb72b5	0.39735952
171	0x3ee59bb7	0.44845363
172	0x3e715b4b	0.23569982
173	0x3ea1bf9c	0.315915
174	0xbe8ad839	-0.2711809
175	0xbdfc3ef5	-0.123166956
176	0xbcc2c653	-0.023776209
177	0x3eb7ad17	0.35874245
178	0xbe57070e	-0.20998785
179	0x3db62aff	0.088949196
180	0x3e42e98e	0.19034407
181	0xbea08cf6	-0.31357545
182	0x3e16a467	0.14711152
183	0xbd9d097c	-0.076678246
184	0x3dba4e0c	0.090969175
185	0xbe327813	-0.17428617
186	0x3ea59a4c	0.32344282
187	0x3dd3f7a8	0.10349971
188	0xbeb3e3c3	-0.35134706
189	0xbec07b03	-0.3759385
190	0xbeceaa7d	-0.40364447
191	0x3f51b74c	0.81920314

fc1.bias f4 [32]
0	0xbe7568c5	-0.23965748
1	0x3e593c5c	0.21214432
2	0xbe8afbdd	-0.2714528
3	0x3eb812eb	0.35951933
4	0xbd804c6b	-0.062645756
5	0x3e17835a	0.147962
6	0x3ec2e901	0.38068393
7	0xbe870e8d	-0.2637829
8	0x3e80c338	0.2514894
9	0xbe943cae	-0.28952545
10	0x3e95fc31	0.2929397
11	0x3d7d2058	0.061798424
12	0x3ed2b7ca	0.41155845
13	0x3e970db0	0.2950263
14	0x3edf6566	0.43632048
15	0x3d20ad62	0.03922785
16	0x3ccb813e	0.0248419
17	0x3e096d3a	0.13420573
18	0xbe3f3237	-0.18671499
19	0x3e728d32	0.23686674
20	0xbec40c69	-0.38290718
21	0xbde26ca9	-0.110558815
22	0xbea74221	-0.3266764
23	0x3e5a7226	0.21332607
24	0xbd4d4893	-0.05011804
25	0x3ef042f0	0.4692607
26	0x3eab6224	0.33473313
27	0x3e96b147	0.29432127
28	0xbebdc80c	-0.37066686
29	0xbec6927b	-0.3878363
30	0xbe8f0e7b	-0.27940735
31	0x3eb7aa3d	0.3587207

fc2.weight f4 [16, 32]
0	0xbc1ade27	-0.009452379
1	0x3e9cd33b	0.30629906
2	0xbe9122dd	-0.2834691
3	0x3f9d3812	1.2282736
4	0x3e28d2aa	0.16486612
5	0x3e7c2bd1	0.2462609
6	0x3f2ad377	0.6672892
7	0xbe24f5c0	-0.16109371
8	0x3ecba372	0.39773136
9	0x3fbc05c2	1.4689257
10	0x3e3db91b	0.18527643
11	0x3e96c2ac	0.29445398
12	0x3f4a316d	0.7898167
13	0xbd78b37a	-0.060718037
14	0x3f4b5dd5	0.7944005
15	0x3f69d54a	0.9134108
16	0x3f3fa15e	0.748556
17	0x3e511e0d	0.2042162
18	0x3e58a557	0.21156822
19	0xbd627878	-0.05529067
20	0x3d5cc284	0.053896442
21	0x3d824500	0.06360817
22	0x3dae8ecf	0.08523332
23	0x3f4f1aa6	0.8090004
24	0x3de9f355	0.11423365
25	0x3faaf8b9	1.3357154
26	0x3f3ccf8c	0.7375419
27	0x3e8e2e2c	0.277696
28	0xbe6150e3	-0.22003512
29	0xbe2c8f0c	-0.16851443
30	0xbc872f55	-0.016502062
31	0xbe587ea6	-0.21142063
32	0xbcc8b009	-0.024498003
33	0x3d67239f	0.056430455
34	0xbe29a0f6	-0.16565308
35	0xbdac81ec	-0.08423218
36	0x3df9ec61	0.12203289
37	0xbe0dda12	-0.13852718
38	0x3c89c40e	0.016817119
39	0xbe03e923	-0.12881903
40	0x3d0dd0b8	0.034622878
41	0xbe01417b	-0.12622635
42	0xbc91b8ec	-0.017788373
43	0xbe2de2e5	-0.16981085
44	0xbdd57c9d	-0.10424159
45	0xbe2d985d	-0.16952653
46	0x3c8e2592	0.0173519
47	0x3dda44b7	0.106576376
48	0x3deadcb4	0.11467877
49	0xbc95428c	-0.018220209
50	0xbdcc9897	-0.09990042
51	0xbcddaf8d	-0.027061248
52	0x3e0a3e46	0.13500318
53	0x3d0b3053	0.033981632
54	0x3e0ed819	0.13949622
55	0xbb5d2736	-0.0033745295
56	0x3c5a8036	0.013336232
57	0x3e04c5d2	0.12966087
58	0xbd1eb354	-0.03874524
59	0xbe2dfc6a	-0.1699082
60	0xbd5458d2	-0.05184252
61	0xbcd9e0ce	-0.026596453
62	0x3e05075b	0.12991087
63	0xbcdd4d92	-0.027014527
64	0xbd6459b6	-0.055749618
65	0x3e7927ca	0.24331585
66	0xbe8f7fd8	-0.28027225
67	0x3f9f4e08	1.2445688
68	0xbd3c5ca9	-0.045986805
69	0x3ee1c760	0.44097424
70	0x3f17c2cb	0.59281605
71	0xbe5a021b	-0.21289866
72	0x3e7aaac8	0.2447921
73	0x3f263763	0.64928263
74	0x3e7599f3	0.23984508
75	0x3e74bef4	0.23900968
76	0x3f07c90d	0.53041154
77	0x3d94f6d5	0.07273642
78	0x3f49a2d0	0.7876406
79	0x3f2fa055	0.6860402
80	0x3efe6d6d	0.4969286
81	0x3f0f294d	0.55922395
82	0xbc61d798	-0.013784312
83	0x3ce9baf0	0.028531522
84	0xbec8633f	-0.3913822
85	0xbde74532	-0.11292495
86	0xbe21ab3c	-0.15787977
87	0x3f840d6c	1.0316596
88	0xbd778517	-0.06042966
89	0x3fa948d5	1.3225352
90	0x3f1881eb	0.5957324
91	0x3e47c7d6	0.19509825
92	0xbdf583ab	-0.11988004
93	0x3dc95c6d	0.09832082
94	0x3d8fb9ac	0.07017836
95	0x3d17c6d3	0.037054848
96	0x3d1ead84	0.038739696
97	0x3e910d65	0.28330532
98	0xbdbb6cc0	-0.09151602
99	0x3f04e7ee	0.51916397
100	0x3e302dbd	0.17204948
101	0xbedf5dfa	-0.43626386
102	0x3f62e589	0.8863149
103	0xbec5263c	-0.38505733
104	0x3eed5ec8	0.46361375
105	0x3f0b2c92	0.54364884
106	0x3f01f956	0.5077108
107	0x3efb6516	0.4910056
108	0x3ec7a159	0.38990286
109	0xbc9f16dd	-0.019420082
110	0x3f7856d6	0.970075
111	0xbe02920f	-0.1275103
112	0xbe62eb58	-0.22160089
113	0xbdff30b3	-0.124604605
114	0xbf1c65a5	-0.610926
115	0xbc2b9173	-0.0104716895
116	0xbf3e3f59	-0.7431541
117	0xbe34a05f	-0.17639302
118	0xbe203c23	-0.1564794
119	0x3d8e31eb	0.06943115
120	0x3e220267	0.15821229
121	0xbd3ed5bc	-0.04659055
122	0x3f5745ee	0.8409108
123	0xbf0cb6ee	-0.5496663
124	0xbdd361de	-0.10321401
125	0x3d9abf18	0.075559795
126	0x3e08f69a	0.13375321
127	0x3d8ee6da	0.06977625
128	0x3e0609f7	0.13089739
129	0x3f130d12	0.5744182
130	0xbdce5b3b	-0.100759946
131	0x3fb9987e	1.4499662
132	0xbc84f726	-0.01623113
133	0x3da3f0e7	0.08004933
134	0x3f29da98	0.6634917
135	0xbe73166a	-0.23739019
136	0x3ea2de0a	0.31810027
137	0x3f6529b3	0.8951675
138	0x3ec255ff	0.37956235
139	0x3eda4e6c	0.42637956
140	0x3f24e558	0.6441245
141	0xbe4175eb	-0.18892638
142	0x3f5ed23a	0.8703953
143	0x3f9c0db2	1.219168
144	0x3f2e58b6	0.6810411
145	0x3e8811a9	0.26575974
146	0x3ed17d9d	0.40916148
147	0x3e90dd35	0.28293768
148	0x3d89dedb	0.067319594
149	0xbdfaff05	-0.12255672
150	0xbdcf9a53	-0.10136857
151	0x3f56569f	0.83725923
152	0xbe5b849d	-0.21437307
153	0x3f9b8948	1.215127
154	0x3f23b59f	0.63949007
155	0x3e13adae	0.14421722
156	0xbcc825f2	-0.024432156
157	0x3e154010	0.14575219
158	0x3c1bb386	0.009503251
159	0xbcf652b6	-0.030068737
160	0x3d84eedf	0.064908735
161	0x3e0101d0	0.12598348
162	0x3d7cfea3	0.061766278
163	0xbfb97086	-1.4487464
164	0xbdee94cd	-0.11649475
165	0x3e3ae699	0.18252029
166	0xbf276794	-0.6539242
167	0xbc2f43e4	-0.010697339
168	0xbf31ae32	-0.69406426
169	0xbf2fa203	-0.68606585
170	0xbe555eb2	-0.20836905
171	0xbe926500	-0.28592682
172	0xbea877ec	-0.32903993
173	0x3e63d2da	0.22248402
174	0xbeae270c	-0.34014165
175	0xc007e5c8	-2.1233997
176	0xbef3dce3	-0.4762946
177	0xbd7d8e4a	-0.061903276
178	0x3d0bd507	0.034138706
179	0x3e841423	0.25796613
180	0x3d864735	0.065565504
181	0x3e3724a3	0.1788507
182	0x3e81bf35	0.25341192
183	0xbf0e65b9	-0.55623966
184	0x3bd507f4	0.006501192
185	0xbf917857	-1.136485
186	0xbf1bed53	-0.60909003
187	0xbec73200	-0.38905334
188	0x3e677716	0.22604021
189	0xbd13f68a	-0.03612379
190	0xbd9019f0	-0.07036197
191	0x3f1b8857	0.60754913
192	0x3daec5a1	0.085337885
193	0x3de7777e	0.11302088
194	0x3e03db06	0.1287652
195	0xbd798ca5	-0.060925145
196	0x3d671827	0.056419518
197	0xbe13c0a3	-0.14428954
198	0xbc2d63f2	-0.010582911
199	0xbdc12d9e	-0.09432529
200	0xbdfb48d5	-0.12269751
201	0xbe26d05b	-0.16290419
202	0x3dc16da6	0.09444742
203	0x3ceb2ad9	0.028706955
204	0x3c02fc98	0.007994793
205	0x3e027672	0.12740496
206	0xbe2b3cda	-0.16722432
207	0x3d40d544	0.047078386
208	0x3dbd9d4e	0.09258519
209	0x3d7226fc	0.05911921
210	0x3e2c4e80	0.1682682
211	0xbbe4eec3	-0.0069864704
212	0xbdaeb80d	-0.08531199
213	0xbe2eb741	-0.17062093
214	0xbe291d92	-0.16515186
215	0x3da5b9e0	0.080920935
216	0xbc732fb7	-0.014842919
217	0xbd3e6972	-0.04648728
218	0x3da7d79e	0.081954226
219	0xbda89f9e	-0.082335696
220	0xbe03aa15	-0.1285785
221	0x3cd8344c	0.026392125
222	0xbe11a1b4	-0.14221841
223	0xbded18f7	-0.11577027
224	0xbdf50c3d	-0.11965225
225	0x3ecba611	0.39775136
226	0x3d8803a1	0.06641317
227	0xbfb50f5d	-1.4145314
228	0x3d331dd2	0.04372961
229	0x3d9eb6f2	0.07749738
230	0xbf06aa25	-0.5260337
231	0x3e7c29f4	0.24625379
232	0xbf3a2edd	-0.7272776
233	0xbf52af41	-0.82298666
234	0x3e138f65	0.1441017
235	0xbe7c1f23	-0.24621253
236	0xbeed2901	-0.46320346
237	0x3deb6cb4	0.11495343
238	0xbec0fa3c	-0.37690914
239	0xbff7878c	-1.9338241
240	0xbf13ffd9	-0.5781227
241	0xbe2f70fa	-0.17132941
242	0x3e56b77c	0.20968431
243	0x3e9998a0	0.29999256
244	0x3d2a2b23	0.041545045
245	0x3da5fc54	0.081047684
246	0x3e46a078	0.19397151
247	0xbf0c747e	-0.5486525
248	0x3e7dfb2e	0.24802849
249	0xbf82b0bd	-1.0210186
250	0xbf25a13c	-0.6469915
251	0xbeb7a7ea	-0.35870296
252	0xbc9c0a4f	-0.019047884
253	0xbb6669c9	-0.0035158268
254	0xbc74cfef	-0.014942153
255	0x3f364abf	0.71207803

fc2.bias f4 [16]
0	0x3e50920a	0.2036821
1	0x3d721ce4	0.059109583
2	0x3e587127	0.21136914
3	0x3da47eb7	0.080319814
4	0x3dde725d	0.10861657
5	0x3e5ae60b	0.21376817
6	0xbdd65b32	-0.10466613
7	0x3e56c172	0.20972231
8	0x3e688ba6	0.22709522
9	0xbe04184a	-0.1289989
10	0xbe265373	-0.16242771
11	0x3e3512d7	0.17682968
12	0x3d9e4dc1	0.07729674
13	0x3e4cd686	0.20003709
14	0xbd9455be	-0.072429165
15	0x3af4d4aa	0.0018679101

fc3.weight f4 [1, 16]
0	0x3f851e6a	1.0399907
1	0x3d7ee690	0.0622316
2	0x3f80614b	1.0029691
3	0x3f68b633	0.90903014
4	0x3f63d18b	0.8899161
5	0xbf19002d	-0.59765893
6	0x3c9cd003	0.019142156
7	0xbf47b65c	-0.78012633
8	0xbefbea45	-0.4920217
9	0x3f9253d8	1.1431837
10	0x3d593b30	0.05303496
11	0xbf1dd644	-0.6165507
12	0x3f7a5f5f	0.97801775
13	0xbef75aed	-0.48311558
14	0x3fb62535	1.4230105
15	0x3f8a12b7	1.0786961
